saved_model/TrainData.pth (torch, 8743 bytes, 6 tensors)

l1.weight f4 [8, 116]
0	0xbd30a402	-0.04312516
1	0x3e8b67c1	0.27227595
2	0x3f626c2b	0.884463
3	0xbe49f8ef	-0.19723867
4	0x3d929d9b	0.07158967
5	0xbec02f4c	-0.37536085
6	0x3dff3f8b	0.12463292
7	0xbe9722cf	-0.29518744
8	0xbe531769	-0.20614399
9	0xbfadcc40	-1.3577957
10	0xbe0d7e4d	-0.13817711
11	0xbe96166c	-0.29313982
12	0xbcb2cf57	-0.021827383
13	0xbf11b1dd	-0.5691202
14	0x3edf9281	0.4366646
15	0xbd64b8df	-0.05584037
16	0x3ec7e424	0.39041245
17	0x3f7566b8	0.9585986
18	0x3fa0f1d3	1.2573799
19	0x3fdaa8a0	1.708271
20	0xbd7e64af	-0.062107738
21	0xbf010f8f	-0.50414366
22	0xbd8b9a92	-0.06816591
23	0xbf81ae35	-1.0131289
24	0x3ec1f8d8	0.37885165
25	0x3f3a63ea	0.72808707
26	0x3c589580	0.013219237
27	0x3e24e8c2	0.16104415
28	0xbf1864e2	-0.59528935
29	0x3da09075	0.07840053
30	0x3ecadb71	0.39620546
31	0x3cab1bbc	0.020887248
32	0x3ebf1c9a	0.3732651
33	0x3ee67b30	0.4501586
34	0x3ed57d5c	0.41697204
35	0x3ff710c6	1.9301994
36	0x3decc304	0.11560634
37	0xbf4894ed	-0.7835224
38	0xbddb3749	-0.10703904
39	0x4021987e	2.5249324
40	0x3ed1c8c4	0.40973485
41	0x3d8be69f	0.06831097
42	0xbeebc968	-0.46052098
43	0xbbbd23cf	-0.005772091
44	0x3f82a0c7	1.0205315
45	0xbeaaed56	-0.33384198
46	0xbf42cc72	-0.7609321
47	0xbdf8e218	-0.12152499
48	0x3c989271	0.018624516
49	0xbf479a35	-0.77969676
50	0xbea1881c	-0.31549156
51	0xbec5a805	-0.3860475
52	0x3dc19c47	0.09453636
53	0xbe354b10	-0.17704415
54	0xbe93c358	-0.28859973
55	0x3f17fb22	0.59367573
56	0xbf183e51	-0.5947009
57	0xbf0e4f96	-0.5559019
58	0xbeae98fd	-0.34101096
59	0xbea7dea9	-0.32787064
60	0xbee1e6e9	-0.44121483
61	0x3f1beb41	0.60905844
62	0xbdf7a9bf	-0.120929234
63	0xbc238d90	-0.009982482
64	0xbeeaf806	-0.45892352
65	0x3fd0584b	1.6276945
66	0x3ee529fd	0.44758597
67	0xbb810e36	-0.0039384617
68	0x3ec3fc25	0.3827831
69	0x3eb4ec96	0.3533675
70	0xbed55288	-0.4166453
71	0xbabb8190	-0.001430558
72	0xbddfa8b2	-0.10920848
73	0x3e6dd6a6	0.23226413
74	0xbef448ea	-0.4771188
75	0xbcf41cd3	-0.0297989
76	0xbc5388d6	-0.012911042
77	0x3e43981c	0.19100994
78	0xbf0cacc0	-0.54951096
79	0xbdbd2b80	-0.092368126
80	0xbea09e80	-0.31370926
81	0xbf473176	-0.77809846
82	0xbe16c4f1	-0.14723565
83	0xbde284d1	-0.11060489
84	0xbea2ef34	-0.31823123
85	0x3f051f4e	0.5200089
86	0x3edcb806	0.4310915
87	0xbd36e9b9	-0.04465649
88	0x3f363dfd	0.71188337
89	0xbe77740f	-0.24165367
90	0x3ee39644	0.4445058
91	0x3c263ea3	0.01014677
92	0x3fdb48bc	1.7131572
93	0xbd9ebe90	-0.07751191
94	0x3f38d41b	0.7219865
95	0x3d8c2211	0.06842435
96	0x3e885e6a	0.26634532
97	0xbed2c612	-0.4116674
98	0xbfbb34af	-1.4625453
99	0xbc7a69c0	-0.015284002
100	0x3f557d73	0.83394545
101	0x3eaffffc	0.34374988
102	0x3f5a1a9f	0.8519687
103	0x4013c395	2.3088124
104	0x3f2d787c	0.6776197
105	0x3eecc61e	0.462449
106	0x3fe08c34	1.7542787
107	0xbdb5fa60	-0.08885646
108	0x3f2e149f	0.68000215
109	0xbdd1c556	-0.10242717
110	0x3ea35be2	0.3190604
111	0xbf48a724	-0.78380036
112	0xbfe0c82b	-1.7561086
113	0x3f15471b	0.58311623
114	0xbcba2d6b	-0.022726735
115	0xbf4720b4	-0.77784276
116	0x3ee11a70	0.43965483
117	0x3e0e3d97	0.13890682
118	0x3f598504	0.8496859
119	0xbe784132	-0.2424362
120	0xbe860bdf	-0.26180932
121	0xbef974ff	-0.48722073
122	0x3dbf91a9	0.09353954
123	0xbeb884a6	-0.36038703
124	0x3d5985e7	0.053106215
125	0xbfa973c1	-1.323845
126	0xbd9d5861	-0.076828726
127	0xbec40ad1	-0.38289502
128	0x3fb9be4c	1.4511199
129	0x3fb139a6	1.3845718
130	0xbf50269e	-0.81308925
131	0x3f22d805	0.6361087
132	0xbf6a904e	-0.9162644
133	0x3e9f7aef	0.31148478
134	0xbf50ee0d	-0.81613237
135	0xbfd846a2	-1.6896555
136	0xbc70310a	-0.014660129
137	0xbe3bf514	-0.18355209
138	0x3d2d8a51	0.042368237
139	0xbf9064d0	-1.1280766
140	0xbdd7b7bf	-0.10533094
141	0xbea41b90	-0.3205228
142	0x3f0a6380	0.54058075
143	0x3eecc5cf	0.46244666
144	0xbd81013d	-0.06299064
145	0x3f05961b	0.5218217
146	0x3fb9b66f	1.4508799
147	0x3e02410e	0.12720129
148	0x3fbed129	1.4907581
149	0x3fb588bd	1.4182354
150	0x3fb5d7a8	1.4206438
151	0x3f165982	0.5873033
152	0x3d78a430	0.060703456
153	0xbf7c417a	-0.9853741
154	0x3ee7ba21	0.45259193
155	0xbca9cccc	-0.020727538
156	0xbf503ca9	-0.8134256
157	0xbebc9a85	-0.3683664
158	0x3f6ccd31	0.925006
159	0x3e7aaa6e	0.24479076
160	0xbf4c361e	-0.79770076
161	0x3f5d598f	0.8646478
162	0x3fb7543a	1.4322579
163	0xbe25dc6b	-0.16197364
164	0x3eeabf06	0.45848864
165	0xbf035435	-0.51300365
166	0x3f8f2320	1.1182594
167	0x3ee57540	0.44816017
168	0xbe2d09e2	-0.16898301
169	0xbe851234	-0.2599045
170	0xbeac861a	-0.3369606
171	0x3f225317	0.63408035
172	0xbeedf0f4	-0.46472895
173	0xbed97142	-0.4246922
174	0x3e6a98c1	0.22909833
175	0xbe1fdb54	-0.15611011
176	0x3f90ac26	1.1302536
177	0xbca0309b	-0.019554427
178	0xbe26c410	-0.1628573
179	0xbd9b6ddb	-0.07589313
180	0xbe9b8396	-0.3037383
181	0x3f7d3867	0.9891419
182	0xbf5ef567	-0.87093204
183	0xbf4e4e7a	-0.80588496
184	0xbf378ddc	-0.71700835
185	0xbf4a215f	-0.7895717
186	0x3f509e9c	0.8149202
187	0xbd669196	-0.056291185
188	0xbe182e46	-0.14861402
189	0x3e81f63f	0.25383183
190	0x3fa727bb	1.3059
191	0xbd2a39c9	-0.041559014
192	0x3eedb543	0.46427354
193	0xbe5863fd	-0.21131893
194	0xbe0d4287	-0.1379491
195	0x3f8adc6d	1.0848519
196	0x3f3890bc	0.7209585
197	0x3fafaafa	1.3724053
198	0x3ecbc6cc	0.39800107
199	0x3ceb87e0	0.028751314
200	0xbeb38cd0	-0.3506837
201	0x3fcd5f6c	1.6044745
202	0x3f927527	1.1442002
203	0x3ef4fc18	0.47848582
204	0x3c5acd29	0.013354578
205	0x3c892e28	0.016745642
206	0xbf20c00d	-0.62793046
207	0xbda6c408	-0.08142859
208	0xbfd82e00	-1.6889038
209	0xbd322112	-0.04348857
210	0xbf90add4	-1.1303048
211	0xbeb4ce5f	-0.353137
212	0x3f80e8bd	1.0071026
213	0xbf0053bb	-0.5012776
214	0xbfc46d31	-1.5345823
215	0x3d28ff4b	0.04125909
216	0x3f2bdf39	0.67137486
217	0x3f7db79e	0.991083
218	0xbe2a1bd1	-0.16612174
219	0xbf4bcfbc	-0.7961385
220	0xbec92943	-0.39289293
221	0x3e902b53	0.28158054
222	0x3f19af3a	0.60033
223	0x3f653441	0.8953286
224	0x3fc0fae2	1.5076563
225	0x3f2be271	0.671424
226	0x3d2e9fdd	0.042632926
227	0x3f0092bd	0.50223905
228	0xbfb108ff	-1.383087
229	0xbfbccaf1	-1.4749433
230	0xbe14a115	-0.14514573
231	0xbf0d8078	-0.5527415
232	0xbf574465	-0.84088737
233	0x3e6306ba	0.22170535
234	0xbed0581a	-0.40692216
235	0x3f623ca7	0.883738
236	0x3ec9b8d2	0.3939882
237	0x3fe005fd	1.7501827
238	0x3f1a984e	0.6038865
239	0x3f72d8e4	0.948622
240	0x3f0cf243	0.5505716
241	0xbe5df114	-0.21673995
242	0x3f18d3db	0.59698266
243	0x3f78a43b	0.97125596
244	0x3f612288	0.87943316
245	0x3f5dfb10	0.86711216
246	0xbf04edaa	-0.51925147
247	0x3ecb666a	0.39726573
248	0xbeaf3dcf	-0.34226844
249	0xbd7e83af	-0.062137302
250	0xbf8ee296	-1.1162899
251	0xbdbe19a3	-0.092822336
252	0x3f904a54	1.1272683
253	0x3f046251	0.5171252
254	0xbd496b31	-0.04917449
255	0x40009a4e	2.009418

l1.bias f4 [8]
0	0x3f46cce2	0.77656376
1	0x3f79a558	0.9751792
2	0x3fa67c52	1.300669
3	0x3f57bdf1	0.842742
4	0x3f97fe8f	1.187456
5	0x3f2cdd7e	0.6752547
6	0x3fb8b743	1.4430927
7	0x3f3d8afc	0.740402

l2.weight f4 [8, 8]
0	0x3beb6922	0.0071841637
1	0x3e192c7a	0.14958373
2	0xbd565824	-0.05233015
3	0xbe01859e	-0.12648627
4	0xbdf65863	-0.12028577
5	0xbea44e40	-0.3209095
6	0xbceb53ea	-0.028726537
7	0xbda5550c	-0.08072862
8	0x3e9321fa	0.2873686
9	0x3edc056e	0.42972893
10	0x3e902958	0.28156543
11	0xbfdcbd18	-1.7245207
12	0xbf26854a	-0.6504713
13	0x3fe23126	1.7671249
14	0x3f3b59dc	0.7318399
15	0x3f942c63	1.1576046
16	0x401f91b2	2.4932675
17	0x3dcbfa67	0.0995987
18	0xbf9b302c	-1.2124076
19	0xbbe2c8da	-0.006920916
20	0x40195bf0	2.3962364
21	0x3fe034f7	1.7516164
22	0xbefeb6d6	-0.49748868
23	0x4019c577	2.4026773
24	0xbfd7450c	-1.6817946
25	0xbf82c2f4	-1.0215745
26	0x404db6c0	3.2142792
27	0x403b431d	2.9259713
28	0xbea58a0d	-0.32331887
29	0xbd813a30	-0.063099265
30	0x3fb4d283	1.4126743
31	0x3f82aa27	1.0208176
32	0xbe373407	-0.1789094
33	0xbca5dee2	-0.02024788
34	0xbe38015d	-0.1796927
35	0x3e08e51a	0.13368645
36	0x3e3d1ec0	0.18468761
37	0xbe2bda30	-0.1678245
38	0xbe0978d2	-0.13424996
39	0xbdc68d27	-0.096948914
40	0xbddb50a2	-0.10708739
41	0x3ffe2d6c	1.9857612
42	0x3e4ca36c	0.19984215
43	0xc01170b5	-2.272504
44	0x3e12ee9f	0.14348839
45	0x3f0fc409	0.561585
46	0x3f940abe	1.1565778
47	0xbf532f0e	-0.82493675
48	0x3f63a1e8	0.88918924
49	0x40006ea8	2.006754
50	0x3f099157	0.53737396
51	0x3f18e4df	0.5972423
52	0x3f58232c	0.8442867
53	0xc004f591	-2.0774882
54	0x40106137	2.2559335
55	0xbfadda39	-1.3582221
56	0x3fc46443	1.5343097
57	0xbfb09cec	-1.3797889
58	0xbf6eb884	-0.932503
59	0x40348ba2	2.8210225
60	0x3f7fd392	0.99932206
61	0x3f8dd71b	1.108127
62	0x3f31a424	0.69391084
63	0xbfb6f167	-1.429242

l2.bias f4 [8]
0	0xbe98665e	-0.297656
1	0xbeb62229	-0.35572937
2	0x3f4dee7b	0.8044202
3	0x3f2efc6a	0.68353903
4	0xbeae86b4	-0.34087145
5	0x3edd1dcf	0.43186805
6	0x3fa88afb	1.3167413
7	0xbd23a1d2	-0.039949246

l3.weight f4 [24, 8]
0	0xbdcd9370	-0.10037887
1	0xbf965ace	-1.1746461
2	0xbd9b559a	-0.075846866
3	0x3f230b29	0.63688904
4	0xbe88e1c4	-0.26734746
5	0xc061382c	-3.5190535
6	0xbfaee1b9	-1.3662635
7	0xbfad4f3f	-1.3539809
8	0x3e1cd00b	0.15313737
9	0xbedf4646	-0.43608302
10	0xc07f3a72	-3.9879422
11	0x3e6f40b8	0.23364532
12	0xbe2cb689	-0.16866507
13	0xbeac5b36	-0.33663338
14	0x3f49c824	0.78821015
15	0xbfe2a5fd	-1.7706906
16	0xbe01d91f	-0.12680481
17	0xbf5e503b	-0.8684117
18	0x3e91a733	0.28447875
19	0xc009ea3a	-2.154921
20	0x3e1cf1c9	0.15326609
21	0xbed6246b	-0.4182466
22	0x3f22984c	0.63513637
23	0xbf9dcdcd	-1.232843
24	0x3e000909	0.12503447
25	0xbda33870	-0.07969749
26	0x3ca36faf	0.019950716
27	0xbfbeb8b1	-1.4900113
28	0x3e8e27b4	0.27764666
29	0xbfa8e6c8	-1.3195429
30	0xbf00d2c1	-0.50321585
31	0x3ed22355	0.4104258
32	0xbdcf9926	-0.101366326
33	0xc0a22d7f	-5.0680537
34	0xbe8c68ba	-0.2742365
35	0xbf7ac626	-0.979586
36	0xbe83ce09	-0.2574313
37	0x3b727117	0.0036993676
38	0x3f113c81	0.56732947
39	0xbeddd071	-0.4332309
40	0xbe8f1057	-0.27942154
41	0xbf6be5d9	-0.92147595
42	0xbf8b9360	-1.090435
43	0xbf95a240	-1.169014
44	0x3e66a698	0.22524488
45	0x3ef322e2	0.4748755
46	0x3f9a4180	1.2051239
47	0xc07b968a	-3.9310632
48	0x3e9ee78d	0.31036034
49	0xc03ce8cb	-2.9517086
50	0xc01fef2f	-2.4989736
51	0x3eb25d45	0.34836784
52	0xbe3263a7	-0.17420827
53	0xc03290f3	-2.790097
54	0x3ee96eb1	0.45592263
55	0xbe0b1302	-0.1358147
56	0xbe58cc0e	-0.2117159
57	0x3eaf5809	0.34246853
58	0xbec11b72	-0.37716252
59	0xbe22cb1b	-0.15897791
60	0xbdc4ecbe	-0.096154675
61	0xc0a336fd	-5.1004624
62	0xbeab5e6a	-0.3347047
63	0xbe8b8d52	-0.27256256
64	0xbea72048	-0.32641816
65	0xc06b12c5	-3.6730206
66	0xbee2c9c3	-0.44294557
67	0xbf3ba318	-0.73295736
68	0xbe98fc18	-0.29879832
69	0xc00ce3da	-2.201407
70	0xbe7fd401	-0.24983217
71	0x3f3ba0da	0.73292315
72	0x3c5a8e7a	0.013339633
73	0xbf2aa317	-0.66655105
74	0xbf8d4719	-1.1037322
75	0x3ed87f4f	0.4228463
76	0x3c7d1b5d	0.015448418
77	0xbff79e79	-1.9345237
78	0xc0402c14	-3.0026903
79	0x3ef8fa7a	0.48628598
80	0xbe199805	-0.14999397
81	0xc051be9b	-3.2772586
82	0x3f41f608	0.7576604
83	0xbf7da3c3	-0.99078006
84	0x3dea6556	0.114451095
85	0xc0565f1e	-3.3495555
86	0xbf45cc09	-0.7726446
87	0xbe2527a1	-0.16128398
88	0xbe4ae4cd	-0.19813843
89	0x3f421ed9	0.7582832
90	0xc08dd058	-4.4316826
91	0xbf69a838	-0.91272306
92	0x3c7900ce	0.015197946
93	0x3f82b3fe	1.0211179
94	0x3f4e6cee	0.80634964
95	0xc0a0a6d5	-5.020365
96	0xbc178fe2	-0.009250613
97	0x3f562bf1	0.836608
98	0x3f3e0c6c	0.74237704
99	0xc02ece7c	-2.7313528
100	0xbba851cd	-0.0051367045
101	0xbf760885	-0.9610675
102	0xbffd4a2c	-1.978826
103	0xbfb6ed45	-1.4291159
104	0xbd919295	-0.071080364
105	0x3f5d01d5	0.8633092
106	0xc002c514	-2.0432787
107	0x3e43d8b8	0.1912564
108	0x3dfa6d1b	0.122278415
109	0xbe61d8ba	-0.22055331
110	0x3ccbf30f	0.024896173
111	0xc01c5a1d	-2.443
112	0x3e196f38	0.14983833
113	0xbf39b3e3	-0.7254011
114	0xbe0b8567	-0.13625108
115	0xbdafa554	-0.08576456
116	0xbd779466	-0.06044426
117	0xbf0dc945	-0.5538524
118	0x3c93f774	0.01806233
119	0xbf9f16de	-1.2428854
120	0x3e844d11	0.25840047
121	0x3ec369b2	0.38166577
122	0x3f0e8cbc	0.55683494
123	0xbe62c865	-0.22146757
124	0x3e6cc926	0.23123607
125	0xc0684227	-3.6290376
126	0xc01dc141	-2.4649203
127	0xbf1c490c	-0.6104896
128	0x3db989ad	0.09059463
129	0x3fbc2183	1.4697727
130	0xbfc8aeb4	-1.5678315
131	0x3f26e74b	0.65196675
132	0xbdfe39db	-0.12413379
133	0xc0827153	-4.0763335
134	0xc00ec8e4	-2.2310114
135	0xbf9ffcd8	-1.2499037
136	0xbd9d4aa9	-0.07680256
137	0xc0217071	-2.5224879
138	0xc04597bf	-3.0873868
139	0x3f92c52d	1.1466423
140	0xbe6ce979	-0.23135938
141	0xbfcc1758	-1.5944624
142	0xbfd88cb8	-1.6917944
143	0xbfd3dd3b	-1.6551889
144	0xbdbad4d9	-0.09122629
145	0x3f5c9fd6	0.8618139
146	0x3ea20c57	0.3165004
147	0x3e991d0e	0.2990498
148	0x3d8a52ff	0.067541115
149	0xc00b3b34	-2.1754885
150	0xbfec761f	-1.8473548
151	0xc0789f55	-3.8847249
152	0x3d37d749	0.044883046
153	0xbf1b9e1d	-0.60788137
154	0x3f2cffcb	0.6757781
155	0xc04a8d3f	-3.164871
156	0x3e1dea61	0.1542144
157	0xc02bf213	-2.68665
158	0xc00655b0	-2.09898
159	0x3ecda0d3	0.40161762
160	0xbbe9c2bd	-0.0071338103
161	0xc0868b15	-4.204478
162	0xbd851b59	-0.06499357
163	0xc059ef56	-3.405233
164	0xbe4fc9ed	-0.20291872
165	0xbfc231d3	-1.5171455
166	0x3ea93648	0.33049226
167	0x3f511efa	0.8168789
168	0x3e1cdbee	0.15318272
169	0x3efa4451	0.48880246
170	0x3c8dd9cf	0.017315773
171	0xbfbe61d7	-1.4873608
172	0x3e33a6fb	0.17544167
173	0x3e129184	0.14313322
174	0x3d3d084b	0.046150487
175	0xbfd64dd7	-1.6742505
176	0x3e8d2356	0.27566022
177	0xbfd1cb09	-1.6390086
178	0x3d8deafb	0.069295846
179	0x3e40c948	0.18826783
180	0xbe23d753	-0.16000108
181	0xbf22659a	-0.6343628
182	0x3f108253	0.5644886
183	0xc0cafa31	-6.343041
184	0xbebb7259	-0.36610678
185	0x3ecf3056	0.40466565
186	0xbfc23de3	-1.5175136
187	0x3f3a1507	0.72688335
188	0x3e76eefd	0.24114604
189	0xc099f419	-4.811047
190	0x3e85f48b	0.26163134
191	0xc0452c9d	-3.080848

l3.bias f4 [24]
0	0xbf3ffa70	-0.7499151
1	0x3dfecb84	0.12441161
2	0x3edb0438	0.42776656
3	0xbf1d8d65	-0.61543876
4	0xbf356075	-0.70850307
5	0x3de87cdd	0.11351941
6	0xbefd7d3a	-0.49509603
7	0xbab895eb	-0.0014082765
8	0xbebbb6c8	-0.3666289
9	0x3ecb8fdb	0.3975819
10	0x3ebe6ed0	0.37193918
11	0x3d3e2e4e	0.04643088
12	0x3e2728cc	0.16324157
13	0xbe1de334	-0.15418702
14	0x3ebe8741	0.37212566
15	0x3e80ab9b	0.25130925
16	0xbf071213	-0.52761954
17	0x3f062361	0.52397734
18	0x3e920d0a	0.28525573
19	0x3e025620	0.12728167
20	0xbed2e199	-0.41187742
21	0xbf323ca8	-0.69623804
22	0x3ea819bc	0.32832134
23	0x3ec33241	0.38124278
